Projeto_4/app/models/stock_rnn.pth (torch, 2722 bytes, 5 tensors)

rnn.weight_ih_l0 f4 [20, 1]
0	0x3e587acf	0.21140598
1	0x3e69737e	0.22797963
2	0xbe7b8344	-0.24561793
3	0x3e210302	0.15723804
4	0xbe75261d	-0.2394032
5	0xbd918731	-0.07105864
6	0xbea66046	-0.32495326
7	0x3d868535	0.06568376
8	0x3ddde2e5	0.10834292
9	0xbeee0478	-0.46487784
10	0x3efa489a	0.48883516
11	0x3e86e2b7	0.26344845
12	0x3f063e0c	0.52438426
13	0xbe141407	-0.14460765
14	0x3ec05e90	0.37572145
15	0xbebb1d4c	-0.3654579
16	0xbdf56716	-0.11982553
17	0xbe6d47c7	-0.23171912
18	0xbf2334c9	-0.6375242
19	0xbe371aae	-0.17881271

rnn.weight_hh_l0 f4 [20, 5]
0	0xbebc7631	-0.36808923
1	0xbe681695	-0.22664864
2	0xbeaa0426	-0.3320629
3	0x3efa6f75	0.4891316
4	0xbf0043f1	-0.5010367
5	0xbedbbef8	-0.42919135
6	0xbe9f0617	-0.31059334
7	0xbeecd24c	-0.46254194
8	0x3efb17fb	0.49041733
9	0xbf18d1a5	-0.5969489
10	0x3e6ce678	0.23134792
11	0xbf121c4b	-0.5707442
12	0x3e447a45	0.19187267
13	0x3e69d4b3	0.22835045
14	0xbe9ce8b9	-0.30646303
15	0xbac1afd6	-0.0014777135
16	0xbe69d868	-0.22836459
17	0x3db41d38	0.087946355
18	0x3ed3c460	0.4136076
19	0xbed31e74	-0.4123417
20	0xbe3c8bff	-0.1841278
21	0xbef5c967	-0.4800522
22	0xbd7ac6d3	-0.06122477
23	0x3f927a77	1.1443623
24	0x3d70c4b1	0.05878133
25	0xbec4e6bf	-0.38457295
26	0x3d4a4cf0	0.04938978
27	0xbdcdc765	-0.10047797
28	0x3edf7b05	0.43648544
29	0xbee8b282	-0.4544869
30	0xbf0ec8a9	-0.55774933
31	0xbe900acc	-0.28133237
32	0xbeea8626	-0.45805472
33	0x3ed1a646	0.4094717
34	0x3c171400	0.009221077
35	0xbd1f402d	-0.038879562
36	0xbdfbd39e	-0.12296222
37	0xbe636fde	-0.22210643
38	0x3f1c8f3e	0.6115607
39	0xbf0bf477	-0.546699
40	0xbe8ecfd4	-0.27892935
41	0xbf238ed4	-0.63889813
42	0xbe2cec71	-0.1688707
43	0x3e732918	0.23746145
44	0xbe293bd0	-0.16526723
45	0xbeb92067	-0.36157534
46	0xbd60175e	-0.054709785
47	0xbef9b505	-0.4877092
48	0x3e932779	0.28741053
49	0xbf079cd8	-0.529737
50	0x3ef4dcb5	0.47824636
51	0x3ea6a3c7	0.32546827
52	0x3ef65277	0.4810979
53	0xbde6fb4d	-0.112784006
54	0xbea061b6	-0.31324548
55	0xbeaff38e	-0.34365505
56	0xbecfebe3	-0.40609655
57	0x3e0b7f71	0.13622834
58	0x3ec093d3	0.3761278
59	0x3ef78f33	0.4835144
60	0xbe8a254d	-0.26981583
61	0x3e13c2d5	0.14429791
62	0x3de11d24	0.10991886
63	0x3e85ebcb	0.26156458
64	0x3f2cf3f3	0.67559737
65	0xbec29575	-0.38004652
66	0xbd55ba07	-0.052179363
67	0xbf1927cf	-0.5982637
68	0xbc0125e4	-0.007882569
69	0xbe013de4	-0.12621266
70	0xbe221775	-0.1582926
71	0xbea3bb9a	-0.31979066
72	0x3cfbd4de	0.030741151
73	0x3f3647f6	0.71203554
74	0xbe9f67f7	-0.31134006
75	0xbf1fb727	-0.62388843
76	0xbd6ca5fd	-0.057775486
77	0xbf05ad11	-0.52217203
78	0x3ed9bc22	0.42526346
79	0xbf4e468c	-0.80576396
80	0xbf44bfec	-0.7685535
81	0xbeee3d63	-0.4653121
82	0xbf114bcd	-0.5675629
83	0x3e8d8687	0.276417
84	0xbf0087c7	-0.5020718
85	0xbf328e6c	-0.6974857
86	0xbf5b8199	-0.85744625
87	0xbf1e58dc	-0.6185434
88	0x3e641da3	0.2227693
89	0xbf290742	-0.660267
90	0xbc734d83	-0.014850023
91	0xbee121d8	-0.43971133
92	0xbea6f276	-0.32606858
93	0x3e2f0dfb	0.17095177
94	0xbf4346a4	-0.76279664
95	0xbf0abb29	-0.54191834
96	0xbed03ee6	-0.40672988
97	0xbf44d148	-0.7688184
98	0x3eca550b	0.39518008
99	0xbf237cbe	-0.63862216

rnn.bias_ih_l0 f4 [20]
0	0x3e0807cd	0.13284226
1	0x3b4da1d2	0.003137697
2	0x3ddc0faf	0.10745179
3	0xbd4ad448	-0.049518853
4	0xbe0c8d9d	-0.13725896
5	0xbdd159fc	-0.10222241
6	0xbd0c65bf	-0.03427672
7	0xbe2eb46c	-0.17061013
8	0x3f2927cb	0.66076344
9	0x3d2fd326	0.042925976
10	0x3eb13485	0.34610382
11	0x3e53dd8d	0.20689984
12	0xbdd51429	-0.10404236
13	0x3ee6c430	0.45071554
14	0xbd0abe02	-0.03387261
15	0x3e01a269	0.12659611
16	0x3db9699d	0.09053347
17	0xbe1f9027	-0.15582334
18	0x3f0a8ba4	0.54119325
19	0x3e477740	0.19479084

rnn.bias_hh_l0 f4 [20]
0	0x3e9c868f	0.3057141
1	0xbe4a3421	-0.19746448
2	0x3ef0e0e2	0.47046572
3	0xbd9917d0	-0.07475245
4	0x3dbd6874	0.092484385
5	0x3e811244	0.25209248
6	0x3eb30903	0.34967813
7	0x3f0b1cb8	0.54340696
8	0x3f317457	0.69318146
9	0xbe64462f	-0.22292398
10	0x3d974a19	0.0738718
11	0xbdff9820	-0.124801874
12	0x3e671077	0.22564875
13	0xbe4626a1	-0.19350673
14	0x3efe387d	0.49652472
15	0xbcf7769a	-0.03020792
16	0x3f33656c	0.7007663
17	0x3ee4534b	0.44594797
18	0x3f0efe23	0.5585653
19	0x3d4fa85c	0.05069767

fc.weight f4 [1, 5]
0	0x3f87665e	1.0578115
1	0x3f5f0090	0.87110233
2	0x3f2dce1a	0.6789261
3	0xbf9d017e	-1.226608
4	0x3f4f79ea	0.810454
